…
{"text": " activation='relu'))\nmodel.add(layers.MaxPooling2D((2, 2)))\nmodel.add(layers.Conv2D(64, (3, 3), activation='relu'))\nImportantly, a convnet takes as input tensors of shape (image_height, image_width,\nimage_channels) (not including the batch dimension). In this case, we’ll configure\nthe convnet to process inputs of size (28, 28, 1), which is the format of MNIST\nimages. We’ll do this by passing the argument input_shape=(28, 28, 1) to the first\nlayer.\nLet’s display the architecture of the convnet so"}
{"text": " far:\n>>> model.summary()\n________________________________________________________________\nLayer (type) Output Shape Param #\n================================================================\nconv2d_1 (Conv2D) (None, 26, 26, 32) 320\n________________________________________________________________\nmaxpooling2d_1 (MaxPooling2D) (None, 13, 13, 32) 0\n________________________________________________________________\nconv2d_2 (Conv2D) (None, 11, 11, 64) 18496\n_____________________________________________"}
{"text": "___________________\nmaxpooling2d_2 (MaxPooling2D) (None, 5, 5, 64) 0\n________________________________________________________________\nconv2d_3 (Conv2D) (None, 3, 3, 64) 36928\n================================================================\nTotal params: 55,744\nTrainable params: 55,744\nNon-trainable params: 0\nYou can see that the output of every Conv2D and MaxPooling2D layer is a 3D tensor of\nshape (height, width, channels). The width and height dimensions tend to shrink\nLicensed to <null>\nIntrod"}
{"text": "uction to convnets 121\nas you go deeper in the netwo
…
the current output is a\n3D tensor. First we have to flatten the 3D outputs to 1D, and then add a few Dense l"}
{"text": "ay-\ners on top.\nListing5.2 Adding a classifier on top of the convnet\nmodel.add(layers.Flatten())\nmodel.add(layers.Dense(64, activation='relu'))\nmodel.add(layers.Dense(10, activation='softmax'))\nWe’ll do 10-way classification, using a final layer with 10 outputs and a softmax activa-\ntion. Here’s what the network looks like now:\n>>> model.summary()\nLayer (type) Output Shape Param #\n================================================================\nconv2d_1 (Conv2D) (None, 26, 26, 32) 320\n__________"}
{"text": "______________________________________________________\nmaxpooling2d_1 (MaxPooling2D) (None, 13, 13, 32) 0\n________________________________________________________________\nconv2d_2 (Conv2D) (None, 11, 11, 64) 18496\n________________________________________________________________\nmaxpooling2d_2 (MaxPooling2D) (None, 5, 5, 64) 0\n________________________________________________________________\nconv2d_3 (Conv2D) (None, 3, 3, 64) 36928\n________________________________________________________________\nf"}
{"text": "latten_1 (Flatten) (None, 576) 0\n________________________________________________________________\ndense_1 (Dense) (None, 64) 36928\n________________________________________________________________\ndense_2 (Dense) (None, 10) 650\n================================================================\nTotal params: 93,322\nTrainable params: 93,322\nNon-trainable params: 0\nAs you can see, the (3, 3, 64) outputs are flattened into vectors of shape (576,)\nbefore going through two Dense layers.\nNow, let’s train "}
{"text": "the convnet on the MNIST digits. We’ll reuse a lot of the code from\nthe MNIST example in chapter 2.\nList
…
d(layers.MaxPooling2D((2, 2)))\nmodel.add(layers.Conv2D(128, (3, 3), activation='relu'))\nmodel.add(layers.MaxPooling2D((2, 2)))\nmodel.add(layers.Conv2D(128, (3, 3), activation='relu'))\nmodel.add(layers.MaxPooling2D((2, "}
{"text": "2)))\nmodel.add(layers.Flatten())\nmodel.add(layers.Dense(512, activation='relu'))\nmodel.add(layers.Dense(1, activation='sigmoid'))\nLet’s look at how the dimensions of the feature maps change with every successive\nlayer:\n>>> model.summary()\nLayer (type) Output Shape Param #\n================================================================\nconv2d_1 (Conv2D) (None, 148, 148, 32) 896\n________________________________________________________________\nmaxpooling2d_1 (MaxPooling2D) (None, 74, 74, 32) 0\n___"}
{"text": "_____________________________________________________________\nconv2d_2 (Conv2D) (None, 72, 72, 64) 18496\n________________________________________________________________\nmaxpooling2d_2 (MaxPooling2D) (None, 36, 36, 64) 0\n________________________________________________________________\nconv2d_3 (Conv2D) (None, 34, 34, 128) 73856\n________________________________________________________________\nmaxpooling2d_3 (MaxPooling2D) (None, 17, 17, 128) 0\n_____________________________________________________"}
{"text": "___________\nconv2d_4 (Conv2D) (None, 15, 15, 128) 147584\n________________________________________________________________\nmaxpooling2d_4 (MaxPooling2D) (None, 7, 7, 128) 0\n________________________________________________________________\nflatten_1 (Flatten) (None, 6272) 0\n________________________________________________________________\ndense_1 (Dense) (None, 512) 3211776\n________________________________________________________________\nLicensed to <null>\nTraining a convnet from scratch on a small "}
{"text": "dataset 135\ndense_2 (Dense) (None, 1) 513\n================================================================\nTotal params: 3,453,121\nTrainable params: 3,453,121\nNon-trainable params: 0\nFor the compilation step, you’ll go with the RMSprop optimizer, as usual. Because you\nended the network with a single sigmoid unit, you’ll use binary crossentropy as the\nloss (as a reminder, check out table 4.1 for a cheatsheet on what loss function to use in\nvarious situations).\nListing5.6 Configuring the model for"}
…
{"text": "r not) the densely connected classifier on\ntop of the network. By default, this densely connected classifier corresponds to\nthe 1,000 classes from ImageNet. Because you intend to use your own densely\nconnected classifier (with only two classes: cat and dog), you don’t need to\ninclude it.\n input_shape is the shape of the image tensors that you’ll feed to the network.\nThis argument is purely optional: if you don’t pass it, the network will be able to\nprocess inputs of any size.\nHere’s the detail "}
{"text": "of the architecture of the VGG16 convolutional base. It’s similar to\nthe simple convnets you’re already familiar with:\n>>> conv_base.summary()\nLayer (type) Output Shape Param #\n================================================================\ninput_1 (InputLayer) (None, 150, 150, 3) 0\nLicensed to <null>\n146 CHAPTER 5 Deep learning for computer vision\n________________________________________________________________\nblock1_conv1 (Convolution2D) (None, 150, 150, 64) 1792\n____________________________"}
{"text": "____________________________________\nblock1_conv2 (Convolution2D) (None, 150, 150, 64) 36928\n________________________________________________________________\nblock1_pool (MaxPooling2D) (None, 75, 75, 64) 0\n________________________________________________________________\nblock2_conv1 (Convolution2D) (None, 75, 75, 128) 73856\n________________________________________________________________\nblock2_conv2 (Convolution2D) (None, 75, 75, 128) 147584\n_____________________________________________________"}
{"text": "___________\nblock2_pool (MaxPooling2D) (None, 37, 37, 128) 0\n________________________________________________________________\nblock3_conv1 (Convolution2D) (None, 37, 37, 256) 295168\n________________________________________________________________\nblock3_conv2 (Convolution2D) (None, 37, 37, 256) 590080\n________________________________________________________________\nblock3_conv3 (Convolution2D) (None, 37, 37, 256) 590080\n________________________________________________________________\nblock3_pool"}
{"text": " (MaxPooling2D) (None, 18, 18, 256) 0\n________________________________________________________________\nblock4_conv1 (Convolution2D) (None, 18, 18, 512) 1180160\n________________________________________________________________\nblock4_conv2 (Convolution2D) (None, 18, 18, 512) 2359808\n________________________________________________________________\nblock4_conv3 (Convolution2D) (None, 18, 18, 512) 2359808\n________________________________________________________________\nblock4_pool (MaxPooling2D) (Non"}
{"text": "e, 9, 9, 512) 0\n________________________________________________________________\nblock5_conv1 (Convolution2D) (None, 9, 9, 512) 2359808\n________________________________________________________________\nblock5_conv2 (Convolution2D) (None, 9, 9, 512) 2359808\n________________________________________________________________\nblock5_conv3 (Convolution2D) (None, 9, 9, 512) 2359808\n________________________________________________________________\nblock5_pool (MaxPooling2D) (None, 4, 4, 512) 0\n============"}
{"text": "====================================================\nTotal params: 14,714,688\nTrainable params: 14,714,688\nNon-trainable params: 0\nThe final feature map has shape (4, 4, 512). That’s the feature on top of which you’ll\nstick a densely connected classifier.\nAt this point, there are two ways you could proceed:\n Running the convolutional base over your dataset, recording its output to a\nNumpy array on disk, and then using this data as input to a standalone, densely\nconnected classifier similar to t"}
…
{"text": "he error signal\npropagating through the network during training will be too large, and the represen-\ntations previously learned by the layers being fine-tuned will be destroyed. Thus the\nsteps for fine-tuning a network are as follow:\n1 Add your custom network on top of an already-trained base network.\n2 Freeze the base network.\n3 Train the part you added.\n4 Unfreeze some layers in the base network.\n5 Jointly train both these layers and the part you added.\nYou already completed the first three st"}
{"text": "eps when doing feature extraction. Let’s pro-\nceed with step 4: you’ll unfreeze your conv_base and then freeze individual layers\ninside it.\nAs a reminder, this is what your convolutional base looks like:\n>>> conv_base.summary()\nLayer (type) Output Shape Param #\n================================================================\ninput_1 (InputLayer) (None, 150, 150, 3) 0\n________________________________________________________________\nblock1_conv1 (Convolution2D) (None, 150, 150, 64) 1792\n__________"}
{"text": "______________________________________________________\nblock1_conv2 (Convolution2D) (None, 150, 150, 64) 36928\n________________________________________________________________\nblock1_pool (MaxPooling2D) (None, 75, 75, 64) 0\n________________________________________________________________\nblock2_conv1 (Convolution2D) (None, 75, 75, 128) 73856\n________________________________________________________________\nblock2_conv2 (Convolution2D) (None, 75, 75, 128) 147584\n___________________________________"}
{"text": "_____________________________\nblock2_pool (MaxPooling2D) (None, 37, 37, 128) 0\n________________________________________________________________\nblock3_conv1 (Convolution2D) (None, 37, 37, 256) 295168\n________________________________________________________________\nblock3_conv2 (Convolution2D) (None, 37, 37, 256) 590080\n________________________________________________________________\nblock3_conv3 (Convolution2D) (None, 37, 37, 256) 590080\n__________________________________________________________"}
{"text": "______\nblock3_pool (MaxPooling2D) (None, 18, 18, 256) 0\n________________________________________________________________\nblock4_conv1 (Convolution2D) (None, 18, 18, 512) 1180160\n________________________________________________________________\nblock4_conv2 (Convolution2D) (None, 18, 18, 512) 2359808\n________________________________________________________________\nblock4_conv3 (Convolution2D) (None, 18, 18, 512) 2359808\n________________________________________________________________\nblock4_pool ("}
{"text": "MaxPooling2D) (None, 9, 9, 512) 0\nLicensed to <null>\nUsing a pretrained convnet 155\n________________________________________________________________\nblock5_conv1 (Convolution2D) (None, 9, 9, 512) 2359808\n________________________________________________________________\nblock5_conv2 (Convolution2D) (None, 9, 9, 512) 2359808\n________________________________________________________________\nblock5_conv3 (Convolution2D) (None, 9, 9, 512) 2359808\n________________________________________________________"}
{"text": "________\nblock5_pool (MaxPooling2D) (None, 4, 4, 512) 0\n================================================================\nTotal params: 14714688\nYou’ll fine-tune the last three convolutional layers, which means all layers up to\nblock4_pool should be frozen, and the layers block5_conv1, block5_conv2, and\nblock5_conv3 should be trainable.\nWhy not fine-tune more layers? Why not fine-tune the entire convolutional base?\nYou could. But you need to consider the following:\n Earlier layers in the convolu"}
…
nnels). Each channel encodes relatively independent\nfeatu"}
{"text": "res, so the proper way to visualize these feature maps is by independently plot-\nting the contents of every channel as a 2D image. Let’s start by loading the model that\nyou saved in section 5.2:\n>>> from keras.models import load_model\n>>> model = load_model('cats_and_dogs_small_2.h5')\n>>> model.summary() <1> As a reminder.\n________________________________________________________________\nLayer (type) Output Shape Param #\n================================================================\nconv2d_5 (C"}
{"text": "onv2D) (None, 148, 148, 32) 896\n________________________________________________________________\nmaxpooling2d_5 (MaxPooling2D) (None, 74, 74, 32) 0\n________________________________________________________________\nconv2d_6 (Conv2D) (None, 72, 72, 64) 18496\n________________________________________________________________\nmaxpooling2d_6 (MaxPooling2D) (None, 36, 36, 64) 0\nLicensed to <null>\nVisualizing what convnets learn 161\n________________________________________________________________\nconv2d_7"}
{"text": " (Conv2D) (None, 34, 34, 128) 73856\n________________________________________________________________\nmaxpooling2d_7 (MaxPooling2D) (None, 17, 17, 128) 0\n________________________________________________________________\nconv2d_8 (Conv2D) (None, 15, 15, 128) 147584\n________________________________________________________________\nmaxpooling2d_8 (MaxPooling2D) (None, 7, 7, 128) 0\n________________________________________________________________\nflatten_2 (Flatten) (None, 6272) 0\n______________________"}
{"text": "__________________________________________\ndropout_1 (Dropout) (None, 6272) 0\n________________________________________________________________\ndense_3 (Dense) (None, 512) 3211776\n________________________________________________________________\ndense_4 (Dense) (None, 1) 513\n================================================================\nTotal params: 3,453,121\nTrainable params: 3,453,121\nNon-trainable params: 0\nNext, you’ll get an input image—a picture of a cat, not part of the images the networ"}
{"text": "k\nwas trained on.\nListing5.25 Preprocessing a single image\nimg_path = '/Users/fchollet/Downloads/cats_and_dogs_small/test/cats/cat.1700.jpg'\nfrom keras
…
