…
model.add(layers.Conv2D(64, (3, 3), activation='relu'))
Importantly, a convnet takes as input tensors of shape (image_height, image_width,
image_channels) (not including the batch dimension). In this case, we’ll configure
the convnet to process inputs of size (28, 28, 1), which is the format of MNIST
images. We’ll do this by passing the argument input_shape=(28, 28, 1) to the first
layer.
Let’s display the architecture of the convnet so far:
>>> model.summary()
________________________________________________________________
Layer (type) Output Shape Param #
================================================================
conv2d_1 (Conv2D) (None, 26, 26, 32) 320
________________________________________________________________
maxpooling2d_1 (MaxPooling2D) (None, 13, 13, 32) 0
________________________________________________________________
conv2d_2 (Conv2D) (None, 11, 11, 64) 18496
________________________________________________________________
maxpooling2d_2 (MaxPooling2D) (None, 5, 5, 64) 0
________________________________________________________________
conv2d_3 (Conv2D) (None, 3, 3, 64) 36928
================================================================
Total params: 55,744
Trainable params: 55,744
Non-trainable params: 0
You can see that the output of every Conv2D and MaxPooling2D layer is a 3D tensor of
shape (height, width, channels). The width and height dimensions tend to shrink
Licensed to <null>
Introduction to convnets 121
as you go deeper in the network. The number of channels is controlled by the first
…
layers. These classifiers process vectors, which are 1D, whereas the current output is a
3D tensor. First we have to flatten the 3D outputs to 1D, and then add a few Dense lay-
ers on top.
Listing5.2 Adding a classifier on top of the convnet
model.add(layers.Flatten())
model.add(layers.Dense(64, activation='relu'))
model.add(layers.Dense(10, activation='softmax'))
We’ll do 10-way classification, using a final layer with 10 outputs and a softmax activa-
tion. Here’s what the network looks like now:
>>> model.summary()
Layer (type) Output Shape Param #
================================================================
conv2d_1 (Conv2D) (None, 26, 26, 32) 320
________________________________________________________________
maxpooling2d_1 (MaxPooling2D) (None, 13, 13, 32) 0
________________________________________________________________
conv2d_2 (Conv2D) (None, 11, 11, 64) 18496
________________________________________________________________
maxpooling2d_2 (MaxPooling2D) (None, 5, 5, 64) 0
________________________________________________________________
conv2d_3 (Conv2D) (None, 3, 3, 64) 36928
________________________________________________________________
flatten_1 (Flatten) (None, 576) 0
________________________________________________________________
dense_1 (Dense) (None, 64) 36928
________________________________________________________________
dense_2 (Dense) (None, 10) 650
================================================================
Total params: 93,322
Trainable params: 93,322
Non-trainable params: 0
As you can see, the (3, 3, 64) outputs are flattened into vectors of shape (576,)
before going through two Dense layers.
Now, let’s train the convnet on the MNIST digits. We’ll reuse a lot of the code from
the MNIST example in chapter 2.
Listing5.3 Training the convnet on MNIST images
…
model.add(layers.Conv2D(64, (3, 3), activation='relu'))
model.add(layers.MaxPooling2D((2, 2)))
model.add(layers.Conv2D(128, (3, 3), activation='relu'))
model.add(layers.MaxPooling2D((2, 2)))
model.add(layers.Conv2D(128, (3, 3), activation='relu'))
model.add(layers.MaxPooling2D((2, 2)))
model.add(layers.Flatten())
model.add(layers.Dense(512, activation='relu'))
model.add(layers.Dense(1, activation='sigmoid'))
Let’s look at how the dimensions of the feature maps change with every successive
layer:
>>> model.summary()
Layer (type) Output Shape Param #
================================================================
conv2d_1 (Conv2D) (None, 148, 148, 32) 896
________________________________________________________________
maxpooling2d_1 (MaxPooling2D) (None, 74, 74, 32) 0
________________________________________________________________
conv2d_2 (Conv2D) (None, 72, 72, 64) 18496
________________________________________________________________
maxpooling2d_2 (MaxPooling2D) (None, 36, 36, 64) 0
________________________________________________________________
conv2d_3 (Conv2D) (None, 34, 34, 128) 73856
________________________________________________________________
maxpooling2d_3 (MaxPooling2D) (None, 17, 17, 128) 0
________________________________________________________________
conv2d_4 (Conv2D) (None, 15, 15, 128) 147584
________________________________________________________________
maxpooling2d_4 (MaxPooling2D) (None, 7, 7, 128) 0
________________________________________________________________
flatten_1 (Flatten) (None, 6272) 0
________________________________________________________________
dense_1 (Dense) (None, 512) 3211776
________________________________________________________________
Licensed to <null>
Training a convnet from scratch on a small dataset 135
dense_2 (Dense) (None, 1) 513
================================================================
Total params: 3,453,121
Trainable params: 3,453,121
Non-trainable params: 0
For the compilation step, you’ll go with the RMSprop optimizer, as usual. Because you
ended the network with a single sigmoid unit, you’ll use binary crossentropy as the
loss (as a reminder, check out table 4.1 for a cheatsheet on what loss function to use in
…
the 1,000 classes from ImageNet. Because you intend to use your own densely
connected classifier (with only two classes: cat and dog), you don’t need to
include it.
 input_shape is the shape of the image tensors that you’ll feed to the network.
This argument is purely optional: if you don’t pass it, the network will be able to
process inputs of any size.
Here’s the detail of the architecture of the VGG16 convolutional base. It’s similar to
the simple convnets you’re already familiar with:
>>> conv_base.summary()
Layer (type) Output Shape Param #
================================================================
input_1 (InputLayer) (None, 150, 150, 3) 0
Licensed to <null>
146 CHAPTER 5 Deep learning for computer vision
________________________________________________________________
block1_conv1 (Convolution2D) (None, 150, 150, 64) 1792
________________________________________________________________
block1_conv2 (Convolution2D) (None, 150, 150, 64) 36928
________________________________________________________________
block1_pool (MaxPooling2D) (None, 75, 75, 64) 0
________________________________________________________________
block2_conv1 (Convolution2D) (None, 75, 75, 128) 73856
________________________________________________________________
block2_conv2 (Convolution2D) (None, 75, 75, 128) 147584
________________________________________________________________
block2_pool (MaxPooling2D) (None, 37, 37, 128) 0
________________________________________________________________
block3_conv1 (Convolution2D) (None, 37, 37, 256) 295168
________________________________________________________________
block3_conv2 (Convolution2D) (None, 37, 37, 256) 590080
________________________________________________________________
block3_conv3 (Convolution2D) (None, 37, 37, 256) 590080
________________________________________________________________
block3_pool (MaxPooling2D) (None, 18, 18, 256) 0
________________________________________________________________
block4_conv1 (Convolution2D) (None, 18, 18, 512) 1180160
________________________________________________________________
block4_conv2 (Convolution2D) (None, 18, 18, 512) 2359808
________________________________________________________________
block4_conv3 (Convolution2D) (None, 18, 18, 512) 2359808
________________________________________________________________
block4_pool (MaxPooling2D) (None, 9, 9, 512) 0
________________________________________________________________
block5_conv1 (Convolution2D) (None, 9, 9, 512) 2359808
________________________________________________________________
block5_conv2 (Convolution2D) (None, 9, 9, 512) 2359808
________________________________________________________________
block5_conv3 (Convolution2D) (None, 9, 9, 512) 2359808
________________________________________________________________
block5_pool (MaxPooling2D) (None, 4, 4, 512) 0
================================================================
Total params: 14,714,688
Trainable params: 14,714,688
Non-trainable params: 0
The final feature map has shape (4, 4, 512). That’s the feature on top of which you’ll
stick a densely connected classifier.
At this point, there are two ways you could proceed:
 Running the convolutional base over your dataset, recording its output to a
Numpy array on disk, and then using this data as input to a standalone, densely
…
learned by the network. You want to visualize feature maps with three dimensions:
width, height, and depth (channels). Each channel encodes relatively independent
features, so the proper way to visualize these feature maps is by independently plot-
ting the contents of every channel as a 2D image. Let’s start by loading the model that
you saved in section 5.2:
>>> from keras.models import load_model
>>> model = load_model('cats_and_dogs_small_2.h5')
>>> model.summary() <1> As a reminder.
________________________________________________________________
Layer (type) Output Shape Param #
================================================================
conv2d_5 (Conv2D) (None, 148, 148, 32) 896
________________________________________________________________
maxpooling2d_5 (MaxPooling2D) (None, 74, 74, 32) 0
________________________________________________________________
conv2d_6 (Conv2D) (None, 72, 72, 64) 18496
________________________________________________________________
maxpooling2d_6 (MaxPooling2D) (None, 36, 36, 64) 0
Licensed to <null>
Visualizing what convnets learn 161
________________________________________________________________
conv2d_7 (Conv2D) (None, 34, 34, 128) 73856
________________________________________________________________
maxpooling2d_7 (MaxPooling2D) (None, 17, 17, 128) 0
________________________________________________________________
conv2d_8 (Conv2D) (None, 15, 15, 128) 147584
________________________________________________________________
maxpooling2d_8 (MaxPooling2D) (None, 7, 7, 128) 0
________________________________________________________________
flatten_2 (Flatten) (None, 6272) 0
________________________________________________________________
dropout_1 (Dropout) (None, 6272) 0
________________________________________________________________
dense_3 (Dense) (None, 512) 3211776
________________________________________________________________
dense_4 (Dense) (None, 1) 513
================================================================
Total params: 3,453,121
Trainable params: 3,453,121
Non-trainable params: 0
Next, you’ll get an input image—a picture of a cat, not part of the images the network
was trained on.
Listing5.25 Preprocessing a single image
img_path = '/Users/fchollet/Downloads/cats_and_dogs_small/test/cats/cat.1700.jpg'
from keras.preprocessing import image
…
